…
font-style: inherit;">'cuda'</span>) <span class="cf" style="color: #003B4F;
background-color: null;
font-weight: bold;
font-style: inherit;">if</span> torch.cuda.is_available <span class="cf" style="color: #003B4F;
background-color: null;
font-weight: bold;
font-style: inherit;">else</span> torch.device(<span class="st" style="color: #20794D;
background-color: null;
font-style: inherit;">'cpu'</span>)</span>
<span id="cb63-2">model.to(device)</span></code></pre></div></div>
<div class="cell-output cell-output-display" data-execution_count="52">
<pre><code>BertForSequenceClassification(
  (bert): BertModel(
    (embeddings): BertEmbeddings(
      (word_embeddings): Embedding(30522, 768, padding_idx=0)
      (position_embeddings): Embedding(512, 768)
      (token_type_embeddings): Embedding(2, 768)
      (LayerNorm): LayerNorm((768,), eps=1e-12, elementwise_affine=True)
      (dropout): Dropout(p=0.1, inplace=False)
    )
    (encoder): BertEncoder(
      (layer): ModuleList(
        (0-11): 12 x BertLayer(
          (attention): BertAttention(
            (self): BertSelfAttention(
              (query): Linear(in_features=768, out_features=768, bias=True)
              (key): Linear(in_features=768, out_features=768, bias=True)
              (value): Linear(in_features=768, out_features=768, bias=True)
              (dropout): Dropout(p=0.1, inplace=False)
            )
            (output): BertSelfOutput(
              (dense): Linear(in_features=768, out_features=768, bias=True)
              (LayerNorm): LayerNorm((768,), eps=1e-12, elementwise_affine=True)
              (dropout): Dropout(p=0.1, inplace=False)
            )
          )
          (intermediate): BertIntermediate(
            (dense): Linear(in_features=768, out_features=3072, bias=True)
            (intermediate_act_fn): GELUActivation()
          )
          (output): BertOutput(
            (dense): Linear(in_features=3072, out_features=768, bias=True)
            (LayerNorm): LayerNorm((768,), eps=1e-12, elementwise_affine=True)
            (dropout): Dropout(p=0.1, inplace=False)
          )
        )
      )
    )
    (pooler): BertPooler(
      (dense): Linear(in_features=768, out_features=768, bias=True)
      (activation): Tanh()
    )
  )
  (dropout): Dropout(p=0.1, inplace=False)
  (classifier): Linear(in_features=768, out_features=2, bias=True)
)</code></pre>
</div>
</div>
<section id="training-loop" class="level3">
<h3 class="anchored" data-anchor-id="training-loop">Training Loop:</h3>
<ul>
<li>Now we have all the ingredients to start out training loop:</li>
</ul>
<div id="cell-82" class="cell">
<div class="code-copy-outer-scaffold"><div class="sourceCode cell-code" id="cb65" style="background: #f1f3f5;"><pre class="sourceCode numberSource python number-lines code-with-copy"><code class="sourceCode python"><span id="cb65-1"><span class="im" style="color: #00769E;
…
